assets/ml_models/model.tflite (tflite, 7952 bytes, 5 tensors)

sequential_31/embedding_25/embedding_lookup f4 [17, 32]
0.013379443 0.00754695 0.036508147 0.0023914091 0.010595728 -0.0038632974 -0.0073044784 0.04805774
-0.00617088 0.020881716 -0.010298111 0.0064634793 0.03763965 -0.03948631 -0.0023607388 -0.039246928
0.03359567 -0.01967274 -0.04887221 0.010687936 0.0027404055 0.00090578943 -0.045992162 -0.024627054
-0.024396528 0.020384494 0.03668126 0.018427778 -0.016307343 0.04002658 -0.013607718 -0.026957834
0.4319764 0.75984865 -0.70977914 0.23068707 -0.49181634 0.9364786 -0.061028592 -0.4890668
-0.42013472 -0.27826554 -0.3704062 0.03088457 -0.73247504 -0.78829664 -0.3801698 0.40287098
0.72268254 -0.52555126 0.4603379 -0.10492209 0.8473353 0.602065 0.25326794 -0.23275226
-0.5580163 0.28185397 -0.61412734 0.58497137 0.05834074 -0.96139413 0.8146102 -0.21200666
-0.7424669 -0.9017811 -0.21170016 0.47326943 -0.49417973 0.41447362 -0.6806079 -0.45862377
0.029085336 -0.55492955 0.8372157 0.8554462 -0.6701892 0.21842502 0.50587726 -0.2947261
0.75467765 0.50666505 -0.52358073 -0.7554672 -0.69841385 0.5197806 0.41380158 -0.72028893
-0.22125424 0.70468557 0.9196263 -0.39162982 -0.25208658 -0.5337832 0.901903 -0.2418612
-0.81055975 0.71442604 -0.07640305 -0.6985287 -0.25798059 -0.067519225 -0.5377336 -0.58266544
-0.4120183 -0.52187437 0.9579474 0.6044565 -0.504699 -0.50150615 0.7666102 -0.041070614
0.6742753 -0.52566063 -0.78967834 0.23967178 0.25350824 -0.67749506 0.88031906 -0.40629196
-0.9113539 0.43945843 -0.984732 -0.25413266 0.36465153 0.8132201 0.1009339 -0.41007105
0.5143181 -0.107706144 0.26022393 -0.8339807 0.2722197 0.74503034 -0.010915434 -0.61256224
-0.13527617 0.44885716 0.7580476 -0.6338665 0.4217542 -0.13575116 0.42501312 0.34185335
0.64016414 0.6100075 -0.8875148 -0.13474216 0.8830514 -0.52973604 0.6021413 -0.0046718
0.5059937 -0.081664436 -0.41625223 1.1786346 -0.64923173 0.627954 0.6570397 -0.44287747
0.16529326 -0.7479258 0.39536706 -0.55746657 -0.29819778 -0.5147571 -0.68144363 -0.49320722
-0.83529377 -0.71183366 -0.37733585 0.35919246 -0.49284673 -0.16811705 0.6401364 0.9314874
-0.795623 -0.72331 -0.58582264 -0.49624294 -0.3090085 0.64761686 0.8653203 -0.7831547
0.51067656 0.4611467 1.0562688 0.86894774 0.49169958 0.7445758 0.11584706 -0.39792916
0.045320064 -1.0663029 -0.6692292 -0.14936718 0.15888697 -0.06365585 -0.31429636 0.38518283
0.33694714 0.016764095 0.31562316 1.3007612 -0.039717466 0.17986096 0.3729598 0.17130731
0.25929785 0.63097084 0.78905505 0.42932913 1.122996 0.61076665 -0.1440584 -0.82312626
0.19908485 0.96746004 0.25519156 0.29826778 -0.43317297 0.34229887 -0.49921125 -0.65070355
-0.42557517 -0.82643723 -0.6940534 0.38366333 -0.58541244 0.07783248 -0.8343177 -0.64379394
0.25143513 0.768098 0.6626892 -0.8065346 -0.6964699 -0.62436825 -0.06736738 0.390691
0.38755018 0.51769376 0.54257214 -0.23926286 -0.6181729 -0.5561589 0.9302061 -0.6085795
-0.583615 -0.34054464 -0.6399171 -0.8772506 0.3568723 0.42698836 -0.88332206 -0.77811086
00000000: 7435 5b3c 684c f73b 9189 153d 30b9 1c3b
00000010: b499 2d3c 602f 7dbb 685a efbb 31d8 443d
00000020: 1835 cabb 2210 ab3c 68b9 28bc 98cb d33b
00000030: 092c 1a3d 66bc 21bd a0b6 1abb 63c1 20bd
00000040: 9d9b 093d ba28 a1bc 3a2e 48bd 741c 2f3c
00000050: 6098 333b 8072 6d3a 4762 3cbd adbe c9bc
00000060: 3adb c7bc 62fd a63c 173f 163d daf5 963c
00000070: fa96 85bc e9f2 233d e8f2 5ebc add6 dcbc
00000080: 032c dd3e 7185 423f 16b4 35bf 3b39 6c3e
00000090: 5acf fbbe 10bd 6f3f 1ef9 79bd f766 fabe
000000a0: e61b d7be d278 8ebe e2a5 bdbe a301 fd3c
000000b0: 7c83 3bbf cfcd 49bf 9ea5 c2be 1b45 ce3e
000000c0: b901 393f 878a 06bf 69b1 eb3e 65e1 d6bd
000000d0: f7ea 583f ef20 1a3f 56ac 813e 9c56 6ebe
000000e0: 28da 0ebf 2a4f 903e 7337 1dbf afc0 153f
000000f0: b3f6 6e3d ed1d 76bf 4b8a 503f 4618 59be
00000100: 5012 3ebf 20db 66bf edc7 58be 5f50 f23e
00000110: 2005 fdbe e335 d43e 523c 2ebf bcd0 eabe
00000120: 5f44 ee3c dd0f 0ebf c553 563f 86fe 5a3f
00000130: 8591 2bbf cfaa 5f3e 2c81 013f 57e6 96be
00000140: 8e32 413f cdb4 013f 6309 06bf 4c66 41bf
00000150: 40cb 32bf 5710 053f cddd d33e db64 38bf
00000160: 7990 62be 4666 343f a16c 6b3f b483 c8be
00000170: 7e11 81be 04a6 08bf 1de3 663f 76aa 77be
00000180: d880 4fbf a0e4 363f 3479 9cbd c7d2 32bf
00000190: 0816 84be 8547 8abd e9a8 09bf 9029 15bf
000001a0: 10f4 d2be 8f99 05bf 0a3c 753f a9bd 1a3f
000001b0: f433 01bf b562 00bf 9140 443f a939 28bd
000001c0: 4e9d 2c3f b291 06bf 5c28 4abf 856c 753e
000001d0: d5cb 813e 5170 2dbf 975c 613f 8005 d0be
000001e0: 7d4e 69bf b200 e13e 6517 7cbf ad1d 82be
000001f0: 9bb3 ba3e 312f 503f 6fb6 ce3d d5f4 d1be
00000200: 5aaa 033f 0a95 dcbd 123c 853e c27f 55bf
00000210: 6160 8b3e 4fba 3e3f a6d6 32bc e1d0 1cbf
00000220: d685 0abe 9bd0 e53e 680f 423f 1345 22bf
00000230: 2bf0 d73e 5a02 0bbe 529b d93e 6707 af3e
00000240: cce1 233f 7429 1c3f 2c34 63bf d9f9 09be
00000250: a80f 623f c89c 07bf ef25 1a3f e615 99bb
00000260: ce88 013f af3f a7bd 031f d5be 80dd 963f
00000270: 0d34 26bf 98c1 203f c133 283f d6c0 e2be
00000280: a342 293e 1178 3fbf 8d6d ca3e 21b6 0ebf
00000290: 61ad 98be 1fc7 03bf 1773 2ebf a885 fcbe
000002a0: d0d5 55bf bb3a 36bf 2a32 c1be 13e8 b73e
000002b0: 6856 fcbe e026 2cbe fbdf 233f f575 6e3f
000002c0: f3ad 4bbf d82a 39bf 79f8 15bf 8e13 febe
000002d0: 5d36 9ebe 38ca 253f a285 5d3f d47c 48bf
000002e0: b3bb 023f 6c1b ec3e d133 873f 5c73 5e3f
000002f0: 0cc0 fb3e 859c 3e3f 3941 ed3d 5fbd cbbe
00000300: 88a1 393d 9d7c 88bf 9b52 2bbf b6f3 18be
00000310: 44b3 223e 005e 82bd 74eb a0be af36 c53e
00000320: 5684 ac3e db54 893c 5c99 a13e 587f a63f
00000330: c8ae 22bd 792d 383e 96f4 be3e 2f6b 2f3e
00000340: b0c2 843e 4e87 213f 83ff 493f 07d1 db3e
00000350: 55be 8f3f 345b 1c3f 0c84 13be 67b8 52bf
00000360: e6dc 4b3e 76ab 773f 78a8 823e 8eb6 983e
00000370: d9c8 ddbe cc41 af3e 9e98 ffbe 8294 26bf
00000380: fde4 d9be 6491 53bf 7cad 31bf 856f c43e
00000390: 97dd 15bf a366 9f3d d895 55bf aecf 24bf
000003a0: 1bbc 803e 12a2 443f 00a6 293f 0d79 4ebf
000003b0: da4b 32bf 99d6 1fbf e9f7 89bd a708 c83e
000003c0: fa6c c63e 9487 043f 02e6 0a3f 5301 75be
000003d0: 9440 1ebf 6e60 0ebf fd21 6e3f decb 1bbf
000003e0: cb67 15bf de5b aebe 9bd1 23bf 7f93 60bf
000003f0: f7b7 b63e 389e da3e 6521 62bf 4632 47bf

sequential_31/dense_51/BiasAdd/ReadVariableOp f4 [16]
-0.11038395 -0.16875906 -0.13248499 -0.049478028 -0.007689186 -0.06817253 -0.019977272 -0.036363136
-0.053041227 -0.057351228 -0.009452038 -0.00952631 -0.21504834 -0.13887173 -0.090551 0.024938155
00000000: fb10 e2bd 2dcf 2cbe 25aa 07be 79a9 4abd
00000010: 91f5 fbbb 0a9e 8bbd 60a7 a3bc 83f1 14bd
00000020: c241 59bd 1fe9 6abd b9dc 1abc 3d14 1cbc
00000030: a235 5cbe 6434 0ebe cd72 b9bd 1a4b cc3c

sequential_31/dense_50/BiasAdd/ReadVariableOp f4 [16]
0.38391808 0.25067478 0.39286718 0.13912807 0.06408489 0.3603002 0.41714197 0.11981342
0.29506156 0.31606483 0.20337398 0.15609959 0.29431492 0.44238418 0.24027784 0.2542968
00000000: e990 c43e 7258 803e e325 c93e 9777 0e3e
00000010: f03e 833d 4579 b83e a293 d53e bd60 f53d
00000020: 4f12 973e 40d3 a13e 4541 503e 92d8 1f3e
00000030: 72b0 963e 2e80 e23e 650b 763e 3133 823e

sequential_31/dense_50/MatMul f4 [16, 32]
0.5192112 0.7250883 -1.3124512 0.29589725 -1.0336243 1.163986 0.041520823 -1.1140938
0.28088877 0.60070455 0.1258239 -0.7688356 -0.11723247 -1.0931886 -0.8667379 0.8356858
1.268635 0.34978002 0.6482728 0.14126997 1.0824875 0.63572526 0.5474588 -0.23611122
-1.2919222 -0.20823123 -1.3522369 0.41869196 0.30570096 -0.30686945 -0.07953033 -1.0487075
1.3471515 -1.0747452 -0.46133384 -0.88069105 -0.40455496 0.1493915 0.20297469 -0.6138913
-0.61731464 -0.20277059 -0.75334877 0.5565406 -0.31716913 -0.88214743 0.12772107 0.6568247
-0.37818578 0.49209583 -0.90557015 -1.2451866 -0.7880271 0.84051865 -0.34129146 0.32515183
1.1709644 0.93513626 0.9653634 1.130682 0.23171043 0.09864033 1.053109 -0.4665308
-1.0303942 -0.95011604 -0.33522448 -0.15395385 -1.1850333 -0.23921168 -0.8828599 -0.8042357
0.48709702 -0.9532238 1.15204 1.0683609 -0.98110265 -0.050150085 0.85801154 -0.26727873
1.1953527 0.72201127 -1.1310217 -0.70674413 -1.3802788 -0.5478998 0.82747525 0.059380062
-1.1229249 0.007973604 -1.1639578 -1.091252 0.94183797 1.3023889 0.08740566 -0.32165498
-0.7174016 0.768202 0.01862886 -1.0688565 0.91769296 0.39880067 -0.4642695 -0.81179196
0.11897591 -0.33650404 1.3209369 1.1315367 -0.80271786 -0.4310092 1.1473489 0.10459834
0.72141075 0.1916152 -1.0939218 -0.25632867 0.7267065 -1.2879614 0.67535377 0.0947468
0.19694628 0.9264357 -0.66385597 0.89454424 -0.6590815 -0.28631583 0.9964549 0.022237504
-0.19147451 -0.029686645 0.5094794 -0.06175087 0.3387643 0.97125065 -0.093030296 -0.017978368
-1.3606488 0.17796522 0.67141694 -0.008106922 0.5009809 0.527888 1.0403026 -0.4020766
0.8822968 0.24578047 -0.98141485 -0.084629945 0.37286794 0.6234312 1.0866603 -0.7215708
0.39168653 0.75646436 0.99203634 -0.25214982 -0.8947967 0.66971797 -0.21638793 -0.43820223
0.1695933 -0.029270347 -0.41531482 -0.26853195 -0.14097619 0.042313546 -0.8824623 -0.38281488
-1.3043424 -0.89545435 -0.4110811 1.3290513 -1.0486044 -0.58735913 0.9881104 1.0333799
-0.70863605 -1.0680099 0.4290932 1.0492471 1.3777148 1.3768715 1.417231 -1.489612
-0.21777068 1.0432173 0.58873856 -0.15257818 0.07466725 0.8532108 -0.964756 -0.6197955
-0.36090457 -0.3966913 -1.1296747 0.8627248 -0.063166656 -0.69719183 -1.2803204 -1.1267706
-0.10823337 0.5327489 0.40558305 -0.665124 -1.106479 -1.0911709 -0.008645744 1.0657874
-0.2444438 -0.871729 0.40543324 -1.2575934 -1.1788259 -0.26680532 0.58492386 -0.48602593
-0.9023727 0.7754398 1.1523167 0.1394624 0.97148794 -0.64223385 -0.40679398 -0.9691919
0.7562998 1.0055718 -0.48157167 -0.13239653 -0.42255062 0.44171423 -0.35440767 -0.25070375
-0.5148507 -0.74058396 0.28766963 -0.04921593 -0.57234067 -0.97545195 0.43496364 -0.09757621
1.0809712 -0.28695562 -0.382569 -0.89625996 0.26727715 -0.29055643 -0.17039472 0.87008935
-1.0387238 0.16489683 -1.0998422 0.44456968 0.30462623 -0.1691837 0.27979696 -0.19014792
00000000: 06eb 043f 639f 393f 67fe a7bf d87f 973e
00000010: cd4d 84bf 7efd 943f bd11 2a3d a09a 8ebf
00000020: a7d0 8f3e c6c7 193f fbd7 003e 69d2 44bf
00000030: 9417 f0bd 9bed 8bbf 89e2 5dbf 81ef 553f
00000040: a262 a23f 5e16 b33e 35f5 253f 13a9 103e
00000050: f38e 8a3f e4be 223f 4326 0c3f 24c7 71be
00000060: b55d a5bf 913a 55be 1916 adbf cb5e d63e
00000070: d684 9c3e fe1d 9dbe cce0 a2bd 0c3c 86bf
00000080: 766f ac3f 4091 89bf f333 ecbe f874 61bf
00000090: d421 cfbe 16fa 183e 99d8 4f3e fb27 1dbf
000000a0: 5508 1ebf 18a3 4fbe 77db 40bf 7279 0e3f
000000b0: fe63 a2be 6ad4 61bf 50c9 023e aa25 283f
000000c0: 91a1 c1be fcf3 fb3e 72d3 67bf 4662 9fbf
000000d0: 25bc 49bf 3b2c 573f c1bd aebe 4d7a a63e
000000e0: 29e2 953f 1765 6f3f 0e22 773f 30ba 903f
000000f0: 8045 6d3e f103 ca3d 47cc 863f 20dd eebe
00000100: f5e3 83bf ce3a 73bf 8ba2 abbe 14a6 1dbe
00000110: 2caf 97bf e8f3 74be 1b03 62bf 64e2 4dbf
00000120: c864 f93e 7a06 74bf 0c76 933f 0dc0 883f
00000130: 8b29 7bbf 2d6a 4dbd a5a6 5b3f c2d8 88be
00000140: 5101 993f bbd5 383f 52c5 90bf 2fed 34bf
00000150: faac b0bf 2943 0cbf 6bd5 533f 8238 733d
00000160: 01bc 8fbf b8a3 023c 92fc 94bf 25ae 8bbf
00000170: 4b1c 713f aeb4 a63f bd01 b33d f6af a4be
00000180: a2a7 37bf e3a8 443f 8d9b 983c 4ad0 88bf
00000190: eded 6a3f 9a2f cc3e bbb4 edbe 99d1 4fbf
000001a0: a4a9 f33d 424a acbe 7614 a93f 32d6 903f
000001b0: eb7e 4dbf 3dad dcbe 54dc 923f a837 d63d
000001c0: 60ae 383f c636 443e a105 8cbf 833d 83be
000001d0: 7009 3a3f ebdb a4bf fce3 2c3f 9c0a c23d
000001e0: 49ac 493e e42a 6d3f 77f2 29bf da00 653f
000001f0: 91b9 28bf fd97 92be ab17 7f3f 6d2b b63c
00000200: e511 44be 6831 f3bc 3e6d 023f 7bee 7cbd
00000210: 8472 ad3e e2a3 783f ab86 bebd 5f47 93bc
00000220: bd29 aebf 843c 363e fbe1 2b3f e5d2 04bc
00000230: 4940 003f ab23 073f a328 853f fcdc cdbe
00000240: 34de 613f e0ad 7b3e 013e 7bbf 7752 adbd
00000250: 8ce8 be3e 3099 1f3f af17 8b3f ddb8 38bf
00000260: 238b c83e a6a7 413f 18f6 7d3f c819 81be
00000270: 6611 65bf a372 2b3f cc94 5dbe 0b5c e0be
00000280: dea9 2d3e 5ec8 efbc 25a4 d4be 057d 89be
00000290: 105c 10be f850 2d3d 0de9 61bf 5000 c4be
000002a0: b1f4 a6bf 7f3c 65bf 3979 d2be 5a1e aa3f
000002b0: ab38 86bf 2b5d 16bf cef4 7c3f cb45 843f
000002c0: 2c69 35bf 8cb4 88bf 1bb2 db3e bb4d 863f
000002d0: f558 b03f 533d b03f d367 b53f 9bab bebf
000002e0: 47ff 5ebe 2588 853f 92b7 163f 743d 1cbe
000002f0: 25eb 983d 066c 5a3f 40fa 76bf ebaa 1ebf
00000300: 7cc8 b8be 1f1b cbbe 2e99 90bf 88db 5c3f
00000310: 855d 81bd 2a7b 32bf 8ae1 a3bf 053a 90bf
00000320: 75a9 ddbd 3b62 083f 95a8 cf3e 9145 2abf
00000330: 1ba1 8dbf 7dab 8bbf e1a6 0dbc b96b 883f
00000340: 7a4f 7abe a229 5fbf f294 cf3e d2f8 a0bf
00000350: c4e3 96bf b59a 88be 92bd 153f 64d8 f8be
00000360: e601 67bf 3983 463f 1d7f 933f 3bcf 0e3e
00000370: 6fb3 783f 7069 24bf 4d47 d0be f61c 78bf
00000380: dd9c 413f 94b6 803f 9090 f6be f592 07be
00000390: 8e58 d8be 5e28 e23e ec74 b5be 3e5c 80be
000003a0: 41cd 03bf e996 3dbf 6f49 933e a596 49bd
000003b0: eb84 12bf 38b7 79bf 8eb3 de3e 09d6 c7bd
000003c0: 445d 8a3f d9eb 92be 15e0 c3be 4b71 65bf
000003d0: 8dd8 883e d0c3 94be f47b 2ebe 2dbe 5e3f
000003e0: e7f4 84bf b7da 283e a1c7 8cbf a39e e33e
000003f0: f8f7 9b3e 7e3e 2dbe 8c41 8f3e 23b6 42be

sequential_31/dense_51/MatMul f4 [16, 16]
0.13669932 -0.8623632 -0.45009065 -0.70144814 0.44575202 0.5496429 -0.8288193 -0.45108035
0.93343973 0.3356536 -0.6425788 -0.36626983 0.13713685 -0.88372135 1.2782968 -0.57902426
0.23347421 -0.056844123 -0.51929647 0.46611896 0.36855382 -0.6976746 -1.3656985 -0.025843645
0.4882256 -0.37914917 -0.16527456 0.16022049 -1.2371732 0.6705147 0.79274726 0.14150016
-0.7038405 0.025879262 0.92697954 0.15799706 0.55061275 -0.41507784 0.40253457 -0.54551035
-0.38210502 1.1938561 -0.481881 -0.22006293 -0.4441156 -0.9484897 -0.30668113 -0.2175409
-0.21874353 0.11160039 0.07062805 -0.42852464 0.27118182 0.30071816 -0.8047398 -0.22722079
0.034146342 -0.87960416 -0.92400527 0.92987514 0.70803356 0.46458995 -0.81124663 0.1687058
-0.3242792 -0.31791648 -0.4996396 -0.18612204 0.022714641 0.50418305 -0.8039524 -0.6627665
-1.6310586 0.6026982 0.08103584 0.08376438 0.018507387 0.26277006 0.3559655 0.6586748
-0.6040605 0.2202393 0.7623263 0.36718246 -0.73141634 -1.3520997 -0.6264074 0.661999
0.36716688 -0.009372623 -0.7919847 -0.6508999 -0.21339308 -0.026645476 -0.52217096 0.3155775
0.46908155 0.28842944 0.6178331 -0.99544865 -0.95809686 -0.84017706 0.26236004 -0.0048605823
-0.030576073 -0.32739168 0.72180545 -0.88509285 0.46819583 -0.4031861 -0.26179132 -0.5110837
-0.6041803 -0.46253482 0.17014329 0.021365695 -0.8432241 -0.4780706 -1.1977441 -0.76324034
0.5461702 0.29072863 0.35242584 -0.526552 0.7191492 0.5180036 0.14782335 -0.753337
-0.06891043 0.65895694 -1.1203071 -0.7263558 0.116531335 -0.5420615 0.09021825 -0.43740153
0.10685588 0.22955658 0.065804966 0.60819626 0.2928476 -0.6661296 -0.37948292 0.3334453
-1.3323225 0.8264002 -0.20783958 -0.47982273 0.014336444 0.8265155 0.5540367 -0.56039006
0.59581673 -0.057173576 -0.038825445 -0.41620794 -0.52723056 -0.4524255 0.06360888 -0.93429315
1.0810561 -0.32572368 -0.9444489 0.09367328 -0.749104 0.19948721 0.34093413 0.5523334
0.63717616 0.19664648 -0.098295644 -0.021220801 -0.6240564 -1.0655702 -0.5438446 -0.14299193
0.26714557 -0.37222213 -0.8191311 -0.22654368 -0.15849309 0.9201175 0.3291688 -0.47589055
-0.4533645 -0.9140733 0.8434255 -0.4119273 -0.39760926 0.32380617 -1.0932331 -0.53113973
-0.19587162 -0.8714195 0.7468298 0.55115557 0.22986647 0.1652809 -0.12728488 0.22486967
0.23863432 -0.50693244 0.21457648 0.13205962 -0.8554222 -0.4977863 0.047116123 -0.81791407
0.51647013 -1.1495386 0.54406935 -0.6863005 -0.4677529 -0.5474498 1.0817512 -0.4871709
-0.94093776 -0.09449367 -0.5477272 0.48516884 -0.31427786 0.23491947 0.46186608 -0.28723755
0.21771553 -0.818647 -0.7614066 -0.335412 -0.2505384 -0.16264898 0.73239505 -0.14144503
-0.07163376 -0.17618324 -0.9854468 -1.1119995 -0.7220093 0.40989476 0.8771918 0.55921775
-0.90764034 0.8043279 -0.23809978 0.5836104 -0.690464 -0.6015353 0.81384915 -0.31810716
-0.76076317 -0.85503346 -0.1993562 -0.29334226 -0.34820876 0.6478105 -0.73253137 0.41630208
00000000: e8fa 0b3e d6c3 5cbf 4872 e6be 1b92 33bf
00000010: 9c39 e43e 66b5 0c3f 802d 54bf 01f4 e6be
00000020: e8f5 6e3f cada ab3e 0b80 24bf b887 bbbe
00000030: 9a6d 0c3e 903b 62bf 3b9f a33f ef3a 14bf
00000040: dd13 6f3e 62d5 68bd 9df0 04bf 25a7 ee3e
00000050: 16b3 bc3e cd9a 32bf 35cf aebf 0db6 d3bc
00000060: b5f8 f93e d71f c2be bc3d 29be d710 243e
00000070: b15b 9ebf daa6 2b3f 7cf1 4a3f 6be5 103e
00000080: e42e 34bf bf00 d43c 884e 6d3f fbc9 213e
00000090: f5f4 0c3f 1585 d4be 0319 ce3e 91a6 0bbf
000000a0: 45a3 c3be 47d0 983f 1bb9 f6be 2d58 61be
000000b0: 1f63 e3be 39d0 72bf 4f05 9dbe 0bc3 5ebe
000000c0: 4efe 5fbe bf8e e43d 70a5 903d 9567 dbbe
000000d0: 58d8 8a3e bbf7 993e 6d03 4ebf 91ac 68be
000000e0: 09dd 0b3d bd2d 61bf 9c8b 6cbf 4c0c 6e3f
000000f0: b041 353f bcde ed3e dcad 4fbf 37c1 2c3e
00000100: ec07 a6be f3c5 a2be c3d0 ffbe c796 3ebe
00000110: 0e14 ba3c 2412 013f d3cf 4dbf 11ab 29bf
00000120: 87c6 d0bf 6e4a 1a3f 1ef6 a53d a98c ab3d
00000130: ce9c 973c cc89 863e 1c41 b63e e99e 283f
00000140: b5a3 1abf 6986 613e d127 433f 57ff bb3e
00000150: 1a3e 3bbf 9a11 adbf 3c5c 20bf c478 293f
00000160: 4cfd bb3e a18f 19bc 82bf 4abf 60a1 26bf
00000170: b783 5abe 9d47 dabc ffac 05bf 6093 a13e
00000180: 752b f03e 06ad 933e 4f2a 1e3f b9d5 7ebf
00000190: d645 75bf d815 57bf 0e54 863e 8545 9fbb
000001a0: ac7a fabc e29f a7be 3ec8 383f 7295 62bf
000001b0: 5db7 ef3e 696e cebe 8309 86be 62d6 02bf
000001c0: 8fab 1abf 5dd1 ecbe 0b3a 2e3e 1c07 af3c
000001d0: 89dd 57bf abc5 f4be ae4f 99bf b863 43bf
000001e0: cfd1 0b3f 62da 943e 2971 b43e 1dcc 06bf
000001f0: 291a 383f e29b 043f 015f 173e b2da 40bf
00000200: e920 8dbd 67b1 283f 3966 8fbf 74f2 39bf
00000210: fba7 ee3d 8bc4 0abf 59c4 b83d 18f3 dfbe
00000220: 41d7 da3d e110 6b3e c1c4 863d c0b2 1b3f
00000230: 1ff0 953e 7887 2abf 964b c2be 58b9 aa3e
00000240: 8b89 aabf f78e 533f e6d3 54be 53ab f5be
00000250: 68e3 6a3c 8596 533f 59d5 0d3f b975 0fbf
00000260: 7287 183f d72e 6abd 6e07 1fbd 3519 d5be
00000270: 95f8 06bf 51a4 e7be 5f45 823d d62d 6fbf
00000280: 0c60 8a3f 41c5 a6be 67c7 71bf c7d7 bf3d
00000290: 48c5 3fbf 6046 4c3e eb8e ae3e b965 0d3f
000002a0: fa1d 233f b25d 493e 3a4f c9bd 3fd7 adbc
000002b0: 29c2 1fbf 9b64 88bf 6639 0bbf 7a6c 12be
000002c0: 4ec7 883e e693 bebe 93b2 51bf 11fb 67be
000002d0: 034c 22be d28c 6b3f d088 a83e eda7 f3be
000002e0: 641f e8be b500 6abf bcea 573f 23e8 d2be
000002f0: 7193 cbbe ecc9 a53e 10ef 8bbf c6f8 07bf
00000300: 9292 48be 5915 5fbf 3d30 3f3f 8818 0d3f
00000310: 1e62 6b3e 653f 293e f856 02be 3c44 663e
00000320: 8e5c 743e 53c6 01bf f0b9 5b3e a33a 073e
00000330: f3fc 5abf d9dd febe d6fc 403d d162 51bf
00000340: 6337 043f 1524 93bf 2148 0b3f 64b1 2fbf
00000350: 4f7d efbe ac25 0cbf d376 8a3f 776e f9be
00000360: 4ce1 70bf e685 c1bd da37 0cbf 0d68 f83e
00000370: 07e9 a0be bb8e 703e b679 ec3e cd10 93be
00000380: d2f0 5e3e da92 51bf 8beb 42bf 1fbb abbe
00000390: 9246 80be 748d 26be 3e7e 3b3f f7d6 10be
000003a0: b9b4 92bd 6169 34be 3e46 7cbf 0056 8ebf
000003b0: 9ad5 38bf badd d13e a48f 603f e528 0f3f
000003c0: 1e5b 68bf 6fe8 4d3f 6ed0 73be 7e67 153f
000003d0: 40c2 30bf 38fe 19bf 6b58 503f f1de a2be
000003e0: 60c1 42bf 79e3 5abf 0824 4cbe f530 96be
000003f0: 6b48 b2be e9d6 253f 2d87 3bbf 8c25 d53e
